Multilabel-Sound-Classification/Practical-Example/cnn_sound_activities_recognizer.pth (torch, 536039 bytes, 10 tensors)

conv1.0.weight f4 [16, 1, 3, 3]
000000 ba 0d cc 3d ab a6 de 3d 98 db 8b be 50 de 04 3e
       0.09963556 0.10871633 -0.27315974 0.1297543
000010 70 36 95 be ee d2 8c bd 82 8e bc 3d d9 68 cf bd
       -0.29143095 -0.06876169 0.09206869 -0.1012742
000020 6f 84 7e 3e 3a 33 cf bd c7 d3 7f 3e a6 9d 7f 3e
       0.24855207 -0.101171926 0.2498313 0.24962482
000030 d2 2a 20 be d4 da 12 3c 0c 2f 80 3c 28 60 de bd
       -0.15641335 0.0089633055 0.015647434 -0.10858184
000040 b9 27 a5 3c e1 76 28 be 99 3c d5 3d 94 78 3f 3e
       0.020160543 -0.16451599 0.10411949 0.1869834
000050 30 16 a5 bc 58 ad 1c be 00 76 32 bd be 5b a0 3e
       -0.020152181 -0.153005 -0.043569565 0.31319994
000060 55 d7 94 bc 97 ea 67 3e a2 7f 94 3e 9b 83 58 3e
       -0.018169085 0.22648083 0.29003626 0.21143954
000070 c7 cc 97 3e 21 a1 9c be a4 58 5e be 52 ad 9d be
       0.2964842 -0.30591682 -0.21713501 -0.30796295
000080 a4 46 b6 bb e4 39 e2 bd 8f 83 8a be 04 52 aa 3e
       -0.0055626202 -0.11046198 -0.27053496 0.33265698
000090 79 67 40 be 74 0c 89 bd 3f 3b 82 3e 8b 6b 9f be
       -0.18789472 -0.06691828 0.25435826 -0.31136736
0000a0 68 91 6a 3e b0 86 c3 bd 90 c1 8a 3e 15 88 94 3e
       0.2290703 -0.09547174 0.271008 0.29010072
0000b0 82 2c 5d be e1 69 21 3e c7 5d ea bd 48 6d b8 3c
       -0.2159901 0.15763046 -0.11443668 0.022513047
0000c0 3d 2c 26 be 6f b2 47 be 46 76 92 be 83 81 92 3c
       -0.16227813 -0.19501661 -0.2860586 0.017884022
0000d0 49 23 33 be 4f d1 82 3e 2a 28 d7 bd dd 83 7d bc
       -0.17493929 0.25550315 -0.105057076 -0.015473333
0000e0 ff 71 80 be e8 4a 8f be e7 45 7c bd ae dc ec 3d
       -0.25086972 -0.27986836 -0.0615901 0.11565529
0000f0 f8 a1 7d be ab d3 6c 3e cb ca 7e 3d 76 c3 88 3e
       -0.24768817 0.2312762 0.062205117 0.26711625
000100 50 a0 87 3e f4 27 82 3e 2c ce a5 be c5 9e 0d 3e
       0.26489496 0.25421107 -0.3238386 0.13830097
000110 03 76 d5 bd 20 32 a5 3e 8c 14 75 bd f8 4f ca bd
       -0.104228996 0.32264805 -0.05983405 -0.09878534
000120 67 47 89 3e ab ec e7 bd 75 e4 64 3c 36 7a 2c 3e
       0.26812288 -0.11324438 0.013970484 0.16843495
000130 55 85 8e be f4 9b a5 3d 27 f4 3f 3e 5d 06 cd bd
       -0.278361 0.08086386 0.1874548 -0.10010979
000140 55 37 75 be 5d 5e 6f 3d 64 64 a0 bd 94 ff 29 be
       -0.23946889 0.0584396 -0.07831648 -0.16601402
000150 78 b2 cd 3d ae ad 41 bd a2 7c 81 bd 68 3b 6d be
       0.10043806 -0.047284774 -0.063226 -0.23167193
000160 b5 f4 5b be fe f1 d7 bd 23 a6 9a be c3 79 7b bd
       -0.21480067 -0.10544203 -0.30204877 -0.061395418
000170 31 c4 4b 3e e1 61 55 be c7 c4 b5 bb ba 66 8b be
       0.1989906 -0.20838119 -0.0055471393 -0.27226812
000180 04 69 ee bd e2 84 48 be f6 3f 6a be 43 42 0a be
       -0.11641124 -0.19581941 -0.22875962 -0.1350184
000190 49 d2 a6 3e f3 98 98 bc a2 7d e5 3d 65 13 21 3c
       0.3258231 -0.01862762 0.11205603 0.009831284
0001a0 ae 96 45 3e cc f8 8b 3e 4c a7 8d be 73 a4 86 3d
       0.19295761 0.27338254 -0.276667 0.06574335
0001b0 6e 41 82 be 99 e2 96 be 95 ea 2a bd 96 e6 5d be
       -0.25440544 -0.29469755 -0.04172762 -0.21669993
0001c0 99 3a be 3d f9 4a 90 bd d2 69 a8 be 6f 58 01 3e
       0.0928852 -0.0704555 -0.32893234 0.12631391
0001d0 5b cc 63 3e b3 2e 82 3e 3a 88 19 3e 0d 55 2f 3e
       0.22245924 0.25426254 0.14993373 0.17122288
0001e0 89 d3 68 be 78 42 7e 3e 3d a4 36 be 45 de 56 be
       -0.22736944 0.24830043 -0.1783609 -0.20983227
0001f0 da 83 1d be f7 5a 8d 3e 3f b8 1f 3e c8 a2 43 be
       -0.15382329 0.27608463 0.15597628 -0.19105065
000200 b4 97 96 3e 51 fb a6 3e 18 b4 87 3e c5 04 b0 3b
       0.29412615 0.32613614 0.26504588 0.0053716623
000210 1d f6 37 3e 4b 4a 72 3c 48 22 85 be 29 af 9c be
       0.17964979 0.014788221 -0.26002717 -0.30602387
000220 b1 cc 73 3e 29 7e a6 3e 74 44 8f be bd dc b6 bd
       0.23808552 0.32518128 -0.27981913 -0.08928821
000230 c9 26 01 be 20 5c 98 3d 26 05 45 3e 5a 6b 44 bc
       -0.12612452 0.074394464 0.19240245 -0.011988485

conv1.0.bias f4 [16]
000000 96 86 9d be da f3 0c be 81 67 1e be 1c ce 40 3e
       -0.30766743 -0.13764897 -0.15469171 0.18828624
000010 d3 4e 2f 3e a8 06 7b 3d 4f 53 48 be f3 26 a6 bd
       0.17119913 0.061285645 -0.1956303 -0.08112898
000020 b4 ae ed 3d de 14 08 be cb 33 1a be ee e7 a0 be
       0.116055876 -0.1328921 -0.1505882 -0.31426948
000030 a1 ec 14 3e 56 f3 83 3d e4 04 ab be f7 56 96 be
       0.14543392 0.06442897 -0.3340217 -0.29363224

conv2.0.weight f4 [32, 16, 3, 3]
000000 1d 63 a5 3d d8 9f e7 bc 59 ff a8 bd c7 ab 62 3b
       0.08075545 -0.028274462 -0.08251829 0.003458725
000010 87 20 34 bb 0e aa 90 3d 9f 9e 48 3d da 17 7b bd
       -0.0027485208 0.07063685 0.048979398 -0.061302043
000020 1f c6 a5 3d 13 97 03 bd 5c 4e 6a 3d 17 87 fb bb
       0.08094429 -0.032126497 0.057203636 -0.007676016
000030 2c 1c 0e bd c4 a8 48 bd a9 a1 7d bb 8f a0 4d 3d
       -0.034694836 -0.048989072 -0.0038701093 0.05020195
000040 07 69 eb 3c de 52 b6 bc 65 e4 95 bd ad df 73 3d
       0.028736604 -0.022256311 -0.073189534 0.059539486
000050 d5 09 17 bc cb 9f 22 bd 5e a1 3b bc 32 c8 51 3d
       -0.009218653 -0.03970317 -0.011452047 0.05121631
000060 10 35 90 3d 7d 98 9d bd 72 53 38 bc 93 ea 67 3d
       0.07041371 -0.076951005 -0.011250364 0.05662019
000070 eb 86 01 3d 29 30 4c bc 1c e5 e7 3c 8a 84 71 3d
       0.03162281 -0.012462654 0.02830749 0.05896429
000080 b3 56 23 3d a1 44 44 3d aa 0d 10 3d 74 be 8e bc
       0.039877605 0.047917012 0.03516928 -0.0174248
000090 93 42 65 3d 3a 04 f8 bc 84 9a a3 3d fb 37 2e 3b
       0.055971693 -0.030275453 0.07988456 0.002658366
0000a0 d9 90 6d bd 4f 53 78 bd a3 65 1c bd a8 07 ae bb
       -0.057999466 -0.060626324 -0.038182866 -0.0053109713
0000b0 78 17 50 bd 32 bd a3 3c b2 f5 82 3d 60 63 42 3d
       -0.05080363 0.019987676 0.06394519 0.047458053
0000c0 1f 9b 05 bd 8f 7b 0f bc f0 d7 1e bd 57 61 8e 3d
       -0.032618638 -0.008757486 -0.038780153 0.0695216
0000d0 4a 6b 1d 3d 14 5a e4 ba 41 70 b4 bc 44 d1 98 bd
       0.038432397 -0.0017421865 -0.022026183 -0.07461789
0000e0 05 61 59 3c 26 91 83 ba a2 58 cc bb 3d ad 1d 3d
       0.01326776 -0.0010037764 -0.006236152 0.03849529
0000f0 42 36 99 bd ab 49 87 3d ee df d7 3c 4f e3 4f bb
       -0.07481052 0.06605848 0.026351895 -0.003172118
000100 40 5b 8a bd 25 4a a6 3d d3 9c 18 bc 03 72 e1 bc
       -0.06755686 0.08119611 -0.009314734 -0.027520185
000110 3e 8c b8 bc 9a 19 2a bc 89 07 9b bd 7b 2a 35 3d
       -0.02252781 -0.01038208 -0.075697966 0.044229966
000120 06 25 a3 3d d5 8a 3c 3c ed 69 a5 bd 1e e4 1a bc
       0.07966046 0.0115077095 -0.08076844 -0.009453801
000130 99 9d 15 3d 8d a1 fd 3c 29 58 8a bd f0 55 73 bd
       0.03652725 0.030960822 -0.067550965 -0.05940813
000140 da 42 de 3c 12 6a 4a bd 8b 0a 9a bd 43 aa 24 bd
       0.027131487 -0.049417563 -0.07521542 -0.040201437
000150 69 61 f7 bc 01 e2 02 bc e9 44 94 bd dd ea 93 bd
       -0.030197816 -0.007988454 -0.07239706 -0.07222531
000160 2f d6 ff 3b 98 f2 6f bd bf e7 ed 3c f8 39 1f 3d
       0.007807515 -0.058580965 0.02904117 0.038873643
000170 59 47 1e bd cc f9 79 bc 13 07 a3 3d eb b8 53 3d
       -0.03864226 -0.01525731 0.07960334 0.051690023
000180 ea c9 95 bd 17 3d 22 bd fe 5c 9f bd c1 f4 65 bc
       -0.07313903 -0.03960904 -0.07781409 -0.014035405
000190 77 ea 93 3d 3a dc 6e 3c ba e1 64 bd 1c 18 5d bd
       0.07222455 0.014578873 -0.055879332 -0.05397807
0001a0 76 e4 7d 3c f6 32 03 bc 94 8a 6f 3d d4 da 30 3d
       0.015496364 -0.0080077555 0.058481768 0.04317744
0001b0 b1 2d 5e 3d e2 e2 2b bc 47 4f a2 bd 4d 7f 25 bd
       0.054242793 -0.010491105 -0.07925277 -0.040404607
0001c0 7c 85 85 3d 79 d1 98 3d a3 25 bf 3c 8d 68 67 3d
       0.06519601 0.07461829 0.023333376 0.05649619
0001d0 e0 9c aa bc c0 c3 05 bd 74 14 6b bd 7d a1 dd 3c
       -0.020826757 -0.032657385 -0.057392552 0.027054543
0001e0 b3 e0 b8 bc b7 a1 9a bd cd 26 9e 3d f0 60 44 3c
       -0.022568082 -0.07550376 0.077222444 0.011986002
0001f0 aa f8 9a bd b0 85 84 3d 41 f2 9e 3c b7 aa 28 bc
       -0.0756696 0.06470811 0.019402625 -0.010294608
000200 2d 39 dd 3c fe 0c 9d 3d ba 58 28 bb 70 cf 36 bd
       0.027004803 0.07668494 -0.002568765 -0.04463142
000210 e6 cd 7b bd 78 1f 9c bc a8 54 91 3d 42 d2 55 3d
       -0.061475657 -0.019057974 0.07096225 0.05220247
000220 2a 0c 68 3d e7 4d 1d bd ec 9b 9a 3d dc a2 ec 3c
       0.056652226 -0.03840437 0.07549271 0.028886251
000230 0b 28 90 bd 8c 26 2d 3d 51 57 6e bd da 57 e4 bc
       -0.070388876 0.04227309 -0.05818874 -0.027873922
000240 85 bb 67 bd 82 29 c7 3b ad 18 41 bd e7 2a 86 bd
       -0.056575317 0.006077946 -0.047142673 -0.06551152
000250 d6 a8 a5 3d db 87 9d bc 19 f7 6b bc e3 de 1f 3d
       0.080888435 -0.01922982 -0.014402174 0.03903092
000260 78 e5 93 bd af 83 c9 3c 80 22 01 3d f5 21 4e 3d
       -0.07221502 0.024598924 0.031527042 0.050325353
000270 5b 9f a7 3d bc 66 9b 3d 26 82 8a bd 84 c4 19 3d
       0.081846915 0.075879544 -0.06763105 0.037540928
000280 1a c0 05 bd 20 f6 49 3b df c5 28 bd 5b ef 98 3d
       -0.032653905 0.0030816868 -0.04120433 0.074675284
000290 56 8d 5f bc 2e 08 55 bd a3 1c 6d 3c 0e 55 14 3b
       -0.013644537 -0.052009754 0.01447216 0.0022633704
0002a0 c5 55 88 3d 91 bf 23 bd 60 1d 8b bd 4a b9 6a bd
       0.06656984 -0.039977614 -0.06792712 -0.05730561
0002b0 6e 2f 60 3d f5 bc 47 bd c9 d2 ce bc 4f 03 17 3d
       0.054732732 -0.048764188 -0.025246995 0.03686839
0002c0 b2 e1 95 bd 48 41 97 3d 78 38 7d bd 7e c5 c1 3c
       -0.073184386 0.07385498 -0.06182143 0.023653742
0002d0 79 2b 98 bb d6 41 c4 3a 33 4d 2b bd a8 1a a1 bd
       -0.004643854 0.0014973234 -0.04182167 -0.078664124
0002e0 a7 13 36 3d 67 9a 3c bd c6 02 aa 3c 70 c5 84 3b
       0.044452336 -0.046045687 0.020753276 0.0040518567
0002f0 e9 04 ef bb 0a fe a0 ba 25 a8 0b 3d db 15 a3 3d
       -0.0072942865 -0.0012282741 0.034095902 0.07963153
000300 42 4b 74 bd 7c 89 72 bc be ac 41 bd 32 f4 af bc
       -0.059642084 -0.014803287 -0.04728388 -0.021478746
000310 6c 69 8f 3c ca 9e 0b bd 7b 9c 9a 3d 88 75 cb bc
       0.017506324 -0.03408698 0.075493775 -0.024836317
000320 6b ca 5c bd de 53 5e 3d 46 44 54 bd 6b e0 4d 3d
       -0.05390398 0.0542792 -0.051822923 0.05026285
000330 fd 96 74 bc cd 52 8f bd 13 19 f0 3c bf e0 7f bd
       -0.014928577 -0.06998215 0.029308831 -0.062470194
000340 89 e7 c7 3b 35 26 25 3c c6 3f 9b 3d bc 7e 22 3d
       0.006100599 0.01007991 0.07580523 0.039671645
000350 af e8 9a bc d5 74 9c 3c 09 3b 75 3c 6d 7d a0 3c
       -0.01890978 0.019098679 0.014967688 0.019591058
000360 a5 69 0e bd 69 fd 4f bc 02 37 0d bd 4a 4e 6c 3c
       -0.03476872 -0.012694695 -0.034476288 0.014422962
000370 4e 7e 1e 3c 6e 47 9f 3d 4f 04 a9 bd 47 d6 92 bd
       0.009673668 0.07777296 -0.08252775 -0.071697764
000380 35 19 27 bc 25 fc 30 bd f0 8f 9d bd 30 fb a4 bc
       -0.010198881 -0.043209214 -0.076934695 -0.020139307
000390 9f c9 84 bd df fb 57 bd 13 2d 85 bd cc 14 2e bd
       -0.06483769 -0.052730437 -0.06502738 -0.042500302
0003a0 75 79 a6 3c 65 2b 99 bd e7 33 78 bd 76 fe 30 bd
       0.020321587 -0.0747898 -0.060596373 -0.043211423
0003b0 4a e6 58 3d 75 81 fa 3c 72 a9 3c 3d 72 84 1d 3d
       0.052953996 0.030579308 0.046060033 0.038456388
0003c0 9e a5 52 bd f3 ce d5 bc ab 95 23 bd c8 50 86 bd
       -0.051427476 -0.026099658 -0.039937656 -0.065583766
0003d0 b2 0a 91 bd 8a 20 99 bd d6 0c 4a ba ef 14 16 bd
       -0.07082118 -0.074769095 -0.0007707601 -0.036641058
0003e0 a1 12 71 bb 19 a3 a4 3d 47 3b 9d bd 19 7f 88 bd
       -0.0036784785 0.08038921 -0.07677322 -0.06664867
0003f0 f8 61 94 ba f8 5c 88 3c c9 eb 5c bc 27 9b 57 bc
       -0.0011320701 0.016645893 -0.01348395 -0.01315955

conv2.0.bias f4 [32]
000000 06 03 53 bd 4d a5 61 bc 3a 61 c9 bb 2e a4 9b 3d
       -0.051516555 -0.013772321 -0.0061456235 0.07599674
000010 11 f9 9e bc 97 30 a0 3d 69 c5 a0 bd eb 24 99 bd
       -0.019405873 0.07821768 -0.07850153 -0.07477745
000020 b0 2b 86 3d 20 09 81 bd a8 42 b3 bd e7 fd 63 3d
       0.065513015 -0.063005686 -0.08752948 0.055662062
000030 f3 c6 a0 bc c9 60 63 bc 3d e1 42 bd 87 bf 4a 3d
       -0.019626116 -0.013878056 -0.047578085 0.04949906
000040 99 77 85 bd 04 65 7b bc 1e c4 1d bd 6e 44 8d bc
       -0.06516952 -0.015343908 -0.03851711 -0.017244544
000050 ba 9a 85 bd 7b 5b ac 3d 69 57 8d bd fa e8 44 3d
       -0.065236524 0.08415886 -0.06901438 0.048073746
000060 70 df 47 bc 04 7e 57 bd ca 5b 1b bd cc 4f 6b 3d
       -0.012199268 -0.052610412 -0.037929334 0.057449147
000070 c5 7b 87 bd 1c 1e b4 bc a8 4a 8f 3d 89 75 a3 3d
       -0.06615404 -0.021987014 0.069966614 0.079814024

conv3.0.weight f4 [64, 32, 3, 3]
000000 0f 75 5f 3b c9 31 eb 3c 60 07 6e bd a7 2e 49 3d
       0.0034096872 0.028710263 -0.058112502 0.049116757
000010 56 42 c6 3b 40 3e 15 3d 19 0a 2b bd da b4 6a 3d
       0.0060503883 0.03643632 -0.041757677 0.05730138
000020 f3 28 cd bc 18 19 52 bd d5 85 3d 3d 30 a2 93 bc
       -0.02504394 -0.051293463 0.04627021 -0.018021673
000030 c2 7f b4 3b 7b 4a f7 3c 15 c3 5b bd 3c c6 62 3c
       0.005508394 0.030186882 -0.05365284 0.013841208
000040 de 5d 33 3b a0 7b ec bc 7d c6 3e 3d f5 e1 46 3d
       0.0027369182 -0.028867543 0.046576012 0.048555333
000050 ce 6f 03 3d 85 64 46 3b a3 29 52 bd 84 80 4d bd
       0.032089047 0.0030272317 -0.05130924 -0.05017139
000060 f3 eb 55 bd b6 eb 8a bc d9 24 0f 3d 1a 05 28 bd
       -0.05222697 -0.016958099 0.03494725 -0.04102049
000070 30 10 ed bc 7e aa 4d 3d b1 94 3e bc 12 94 0b 3d
       -0.028938383 0.050211422 -0.0116321305 0.034076758
000080 8a 40 ce 3c 44 dd 85 bc ee 42 68 bd e1 55 87 3c
       0.025177259 -0.01634086 -0.056704454 0.016520442
000090 2c 70 dc 3c 09 e7 ab bc 4f 1d 88 ba 03 ee 0d 3c
       0.026908956 -0.02098419 -0.0010384711 0.008662703
0000a0 62 d1 65 3d 9e 60 6f 3d 65 0e 72 3c d9 e4 a8 bc
       0.056107886 0.05844175 0.01477394 -0.020616936
0000b0 73 79 4f bd a5 8f bd 3c ad 82 21 bd 4d ad 95 3a
       -0.050652932 0.023139784 -0.039431263 0.0011419446
0000c0 1a d1 0a 3d 7a d0 61 3c a0 94 48 bc 4f ee dc bc
       0.03389082 0.013782615 -0.012242466 -0.026969103
0000d0 fb 9a a3 bb 25 65 19 bd 4f 36 d6 bc 14 53 ec 3c
       -0.0049928403 -0.037449975 -0.026148943 0.028848208
0000e0 95 ab 38 3d eb 65 9e bc fb 74 17 3d c7 d6 61 bd
       0.04508551 -0.019335708 0.036976796 -0.05513647
0000f0 a5 b4 cc bc 19 db bd 3c 88 48 19 bd dd 36 61 bd
       -0.024988482 0.023175763 -0.037422687 -0.054983962
000100 da 97 bc bc a7 06 30 bb e0 1a 1e 3d 23 86 41 bd
       -0.023021627 -0.0026859434 0.03859985 -0.047247063
000110 59 8e a1 3c 5c 81 53 bd 9b 24 a3 bc d7 52 81 3b
       0.019721197 -0.05163704 -0.019914916 0.003946643
000120 02 9f 45 bb fc 4b 21 3c 25 35 62 3c 32 2f 30 3d
       -0.003015459 0.009844776 0.013806616 0.04301376
000130 93 22 10 bd c1 59 51 bd 57 c7 67 3c c0 ed 20 3d
       -0.035189223 -0.051110987 0.014146647 0.039289236
000140 26 23 40 3d a3 e3 a9 bc 27 1a c2 bc 05 57 fe 3c
       0.04690852 -0.020738428 -0.023694111 0.031047354
000150 5c 77 23 3d cd a4 8f 3c 2e 34 c3 3c fa 58 0d 3d
       0.03990875 0.017534638 0.023828592 0.034508683
000160 a8 f0 8f 3b f2 f7 91 3c 1c fe 01 3d 7d a7 95 bc
       0.004392702 0.017818425 0.03173648 -0.018268341
000170 6d 4c 49 bd dd c0 b9 bc a9 95 8d bb 0a 29 f6 bc
       -0.04914515 -0.022674972 -0.0043208194 -0.030048866
000180 ee 01 55 3d cf 1a 65 3d 28 6a 7c 3b a1 06 bc bc
       0.052003793 0.05593377 0.0038515422 -0.02295238
000190 5a 24 09 bd 91 d3 8a 3c 2d ad 25 3d 1e 87 e7 3c
       -0.033481933 0.016946586 0.040448356 0.028262671
0001a0 d6 28 5c bd fe 1e de bc 04 5f 45 bd d5 32 50 3d
       -0.05374988 -0.027114388 -0.048186317 0.050829727
0001b0 0e 40 10 bd 39 50 56 bd 3a a6 04 bb 77 4d fe 3c
       -0.035217337 -0.0523226 -0.002024068 0.031042797
0001c0 20 a7 32 bd ff e0 6d 3d c9 c5 47 3c d5 bf 57 bd
       -0.043616414 0.0580759 0.012193152 -0.05267318
0001d0 bd f3 9f 3c 2f 8a 61 bd 43 97 30 bd 6f f0 37 bb
       0.019525403 -0.055063423 -0.043113004 -0.0028066894
0001e0 1c b6 c3 bc a4 b9 45 3d c8 2e 6e bc 9c 90 ce bb
       -0.023890547 0.048272744 -0.014537521 -0.00630386
0001f0 f5 32 87 3c 09 3d 36 bd 3a 01 2f 3d be 9b d5 3c
       0.01650379 -0.0444918 0.04272578 0.02607524
000200 ca 50 53 3d e0 db 26 bd d4 c6 3a bc 59 69 23 bd
       0.05159072 -0.040737033 -0.011399943 -0.03989539
000210 6a f6 3f 3d 00 2a 0f 3d 3f f1 b8 bc 58 b6 6f 3d
       0.04686586 0.034952164 -0.022575973 0.058523506
000220 72 5c 66 3d 82 9b 5b 3d 2a 02 56 bd 33 8a 9c bc
       0.056240506 0.0536151 -0.052248158 -0.019108867
000230 b4 1d 16 bd f6 cb 8b bc a8 34 dc bc ae 34 fa 3b
       -0.03664942 -0.01706503 -0.026880577 0.0076356744
000240 3b e4 37 bd 30 18 0c bc 72 89 64 3b e4 ea e4 3b
       -0.044895392 -0.008550689 0.0034871963 0.006986009
000250 2c b9 60 bd b2 5a 4f bd cf ee 5b bd 06 27 91 3c
       -0.054864094 -0.050623603 -0.053694542 0.017718803
000260 8a 60 31 bd 32 1a 5a 3d a7 fb ea bc 39 57 1d bd
       -0.043304957 0.053247638 -0.02868445 -0.03841326
000270 a2 ae 3e bd db 33 4a bd b4 4c 0a 3d 0a 5f 42 bd
       -0.04655326 -0.04936586 0.033764556 -0.047453918
000280 64 42 08 3d ba 9c c3 3c 0d 6c 51 bd 98 90 58 bd
       0.03326644 0.023878444 -0.051128436 -0.05287227
000290 e8 55 aa bc 01 26 62 bd ca 00 1c bd e5 32 d6 bc
       -0.020792916 -0.055212025 -0.03808669 -0.026147315
0002a0 72 84 49 bc 6c d6 3e 3d 9d 3e 05 bd a9 ba 34 bd
       -0.012299644 0.046591207 -0.032530416 -0.044123325
0002b0 a1 ba 0f bc a7 b6 4c bd 75 64 19 3d 26 0b f4 3c
       -0.008772523 -0.04997888 0.03744932 0.029790472
0002c0 40 6d 28 3d cf 59 de 3c fe 9d 3c bd 6d 56 9e 3b
       0.041119814 0.027142433 -0.04604911 0.00483208
0002d0 f6 01 24 bd 54 9f d2 3b 18 6b 60 3c 88 d1 3f bd
       -0.040040933 0.006427685 0.013697408 -0.046830684
0002e0 76 df 6b bd c6 26 3e 3d 38 be 5d 3d eb db 74 3d
       -0.057586156 0.046423696 0.054136485 0.059780043
0002f0 a9 87 45 3d 49 bb 14 3d 67 d2 bc 3b a6 85 51 3d
       0.04822508 0.03631142 0.0057623866 0.051152848
000300 66 2b 45 bc af 7f f5 3c b0 cc 01 bd 6f f1 40 3d
       -0.012034273 0.02996811 -0.031689346 0.04710525
000310 f1 a3 1e 3d 64 01 12 3d 03 93 02 3d 2f f8 4c 3d
       0.038730565 0.035645857 0.031878483 0.050041374
000320 1c 22 85 ba be 22 bf bc 6f 34 81 3b f6 5d b3 3c
       -0.001015726 -0.023331996 0.003943018 0.02189539
000330 6e d8 87 bc 57 04 9b 3c ff c9 0a 3d 8f 7e 1d ba
       -0.016582694 0.018922968 0.033884045 -0.00060079334
000340 45 8c 64 3d 1d 0d cd bc 90 46 4c bb 43 47 75 3c
       0.055797834 -0.025030667 -0.0031169988 0.014970603
000350 33 14 13 bd ed 62 55 3d 01 42 82 3c db 5d 27 bc
       -0.035907935 0.052096296 0.015900614 -0.010215248
000360 66 4a 97 bc 7d d6 f5 bc 68 d0 45 3d e9 c8 33 bd
       -0.018468093 -0.030009503 0.048294455 -0.043892775
000370 53 cc b4 39 8b 7b 4c bd c5 78 42 bc 96 6a 4f bd
       0.0003448451 -0.049922507 -0.011869614 -0.050638758
000380 df a6 87 bc 96 ce 45 3d 07 a2 07 bd ef 53 9f 3b
       -0.016559063 0.04829272 -0.033113506 0.0048623006
000390 db 1d e0 bc 31 50 06 3d f6 ef 55 bd 94 ca 4a 3d
       -0.027357986 0.03279132 -0.052230798 0.0495096
0003a0 0e fe 2d 3c 25 3e 67 3c ec 41 ce ba 39 e4 ca 3b
       0.010619653 0.0141139375 -0.0015736199 0.006191757
0003b0 b0 ec 31 3d 6d e8 14 3d a1 7c 3d 3d a4 51 41 bd
       0.043438613 0.03635447 0.046261434 -0.047197
0003c0 f3 6f 8c bc aa 70 b9 3c 58 26 3a bd 10 d4 26 bd
       -0.017143225 0.02263673 -0.045446724 -0.040729582
0003d0 cc 45 cd 3c 95 b5 f1 bc cd bb c2 3c 64 35 01 3c
       0.025057696 -0.02950553 0.023771191 0.0078862645
0003e0 cb fd 7a 3d 52 b4 35 3d 37 f1 04 3d 9a 49 08 3b
       0.061277192 0.04436142 0.032456603 0.0020795823
0003f0 5b 25 eb bc 2a 3d c6 3b 6c 38 7b bc 7b 5d 0d bd
       -0.028704336 0.006049772 -0.015333276 -0.034512978

conv3.0.bias f4 [64]
000000 a5 22 6f bd 51 37 36 bd 95 4d 37 3c bb 20 93 3c
       -0.05838265 -0.044486348 0.011187931 0.017959943
000010 09 ab 3e 3d 7a 0d a5 3b ed 6b 77 3d 3e ee 67 bd
       0.04654983 0.005037007 0.06040566 -0.05662369
000020 ef 8d 5c bd 66 91 5a bd eb 05 3c bd 7a 1f 3c bd
       -0.053846296 -0.05336132 -0.04590408 -0.045928456
000030 ad dd d6 bc 13 29 83 3d 97 c7 32 3d b2 37 0b 3d
       -0.02622875 0.06404319 0.043647375 0.033988662
000040 06 46 be bc 99 31 9f 3c 4b 28 a9 bc 02 67 38 bd
       -0.02322675 0.01943283 -0.020649096 -0.04502011
000050 d7 d6 f0 bc ab 49 04 bd 8e 33 e8 3c 0e 83 39 bd
       -0.029399319 -0.032296818 0.028344896 -0.045291
000060 50 13 18 bd d4 ce 4f 3d 1a c1 79 bd 72 9b 5c 3c
       -0.037127793 0.050734356 -0.06097517 0.013464795
000070 68 e0 ea bc ff 4c e4 3c 7a 50 74 bd e7 71 f1 bc
       -0.028671458 0.027868746 -0.05964706 -0.029473258
000080 35 ae 35 bd a4 07 64 3d ce 23 a1 3a d0 f3 81 3c
       -0.04435559 0.05567135 0.0012293996 0.01586333
000090 b3 07 3d 3c 20 96 2a bc 3b 5e 47 3d 50 c2 af 3c
       0.01153748 -0.010411769 0.04867385 0.02145496
0000a0 67 73 48 3d 67 07 70 3d c8 7d 04 3c 2c e6 aa 3c
       0.04893818 0.05860081 0.008086629 0.020861708
0000b0 a3 51 44 bc 3e 34 0e 3b 54 4f 19 3d dc 7e d2 3c
       -0.011982354 0.002169862 0.03742917 0.025695257
0000c0 3f 07 91 3c c5 68 65 bd 8b 1d 40 bc ca 56 9f bc
       0.01770365 -0.05600812 -0.011725794 -0.019450564
0000d0 22 19 32 3d 8e 94 9f 3c 0c ce 6f bc 43 db c3 bb
       0.043481 0.019480016 -0.014636528 -0.005977066
0000e0 36 2a 3b bc a4 db b1 bc 08 63 b6 bc b0 6d 61 3d
       -0.011423638 -0.021711178 -0.022264019 0.055036247
0000f0 39 41 34 3b 72 21 5f 3c fd e9 18 bd e9 e0 dd 3c
       0.0027504696 0.013618814 -0.037332524 0.027084785

conv4.0.weight f4 [128, 64, 3, 3]
000000 f8 5f aa 3a 32 92 84 3c 76 a3 f0 3b 3e 0b 86 bc
       0.0012998572 0.016182993 0.007343705 -0.016362783
000010 db f7 25 3d 4a 21 9a bb 9e b5 de b8 14 47 1e 3d
       0.040519577 -0.0047036754 -0.00010619614 0.038642004
000020 20 dd d1 3c 33 a2 0f 3c 37 05 19 3d b2 c4 e3 3c
       0.025618136 0.008766699 0.03735849 0.027803753
000030 b4 3d 9a bc c8 e0 22 bc 0d dc 02 3d 16 ea f3 3c
       -0.01882825 -0.009941287 0.031948138 0.029774707
000040 80 ae 6b ba e2 3f 14 bd 2e 6d 95 bc 6a 79 f5 bc
       -0.0008990541 -0.036193736 -0.018240537 -0.029965121
000050 11 54 ba bc 54 03 59 3c 77 cf 2f 3c 89 0f 0d bd
       -0.022745164 0.013245422 0.010730616 -0.034438644
000060 6c 04 92 bb 6b 53 3e bc 5b 0b ff 3c 51 a7 00 3d
       -0.0044560935 -0.011616568 0.031133344 0.031409565
000070 da 75 8d 3c 6e 8f f1 3c 74 8e 10 bd 4e e3 03 3d
       0.01726811 0.029487338 -0.035292104 0.032199197
000080 1a f5 13 3c 63 4f 90 bb 4f 81 35 bc ec be 14 3d
       0.009030605 -0.004403995 -0.011078193 0.03631489
000090 35 eb c9 bc 6e a6 03 3d 0e 2f 1e 3b 04 70 c8 b9
       -0.024648288 0.03214114 0.0024136933 -0.0003823043
0000a0 f1 9c 89 3c 83 c5 8f bc 62 ec 2b 3d 19 70 de bc
       0.016798468 -0.017550236 0.04197348 -0.027153062
0000b0 8d b6 d7 3b e9 32 1c 3d 25 b8 84 3c e4 61 db bc
       0.006583041 0.03813449 0.016201088 -0.026780076
0000c0 c4 8b 16 bd a7 60 06 bc d9 e8 4d bc f0 b0 c6 3c
       -0.036754385 -0.008201755 -0.012567722 0.024254292
0000d0 75 cd fb 3b 78 41 10 3d 55 a2 d3 bc 7a ae 08 bc
       0.0076844045 0.035218686 -0.025834242 -0.00834238
0000e0 d2 c8 a1 bc 5d f3 05 bd ce e5 48 3c ff 74 07 bd
       -0.019749079 -0.032702792 0.012261821 -0.03307056
0000f0 b2 35 08 bb 48 ce c5 bc ed c5 82 3a 1f d6 01 bd
       -0.0020783958 -0.024146214 0.0009977199 -0.031698342
000100 c7 3b b5 bc c5 b6 20 bd b0 4a e6 bb f3 4a ec 3c
       -0.02212323 -0.039236803 -0.0070279464 0.028844332
000110 1e 28 39 ba c1 1a 93 bb 6b 05 b1 bc 63 03 f9 bc
       -0.0007063168 -0.0044892733 -0.021609029 -0.030397123
000120 1d 31 70 bc 22 b9 82 3c 6a c0 00 bd b9 c2 01 bd
       -0.014660147 0.015957419 -0.0314335 -0.031679843
000130 31 4b b7 bc ae ba a1 bc 15 af 8e 3b 07 a9 26 bc
       -0.022374721 -0.019742336 0.0043543675 -0.010172135
000140 ee 8c ce bc 36 2f 1a bc 2c 19 0b 3d 20 29 bb 3c
       -0.025213685 -0.00941067 0.033959553 0.022846758
000150 60 1d 1d 3d e2 5d 72 bc 8d 2a 9c 3b 8a 38 d2 ba
       0.038358092 -0.014792891 0.0047658146 -0.0016038578
000160 aa 2b 40 bc 16 47 1c 3d 11 6c 1d 3c a1 a1 9b bb
       -0.01172916 0.03815373 0.009608285 -0.0047494923
000170 72 5d fc 3c 6e 9a d1 bc cd a4 eb bc 0f 58 1e bc
       0.030806277 -0.025586333 -0.028765107 -0.0096645495
000180 81 85 01 bd 8b cf 31 3d fc f7 6b 3c 40 f1 0a 3c
       -0.03162146 0.04341082 0.014402386 0.00848037
000190 91 23 1c bd ab 9e 01 bc 01 5f 18 3d a9 f4 83 bb
       -0.038119856 -0.007911365 0.037199978 -0.0040269685
0001a0 d9 81 22 bd 39 bd 05 bd 85 6a 71 3b 7c 05 5f bc
       -0.039674614 -0.03265116 0.0036837172 -0.013612147
0001b0 28 19 d2 3c 37 77 01 3b 73 08 ad bc 41 11 d2 3c
       0.025646761 0.0019754895 -0.021122193 0.025642993
0001c0 21 b7 39 3c 49 91 a6 3c 40 98 b1 3a 0e df 11 bd
       0.011335165 0.02033295 0.0013549402 -0.035613112
0001d0 b9 10 10 3d c4 7b 12 bc 63 81 e0 3c f6 71 04 bd
       0.035172198 -0.008940641 0.027405446 -0.032335244
0001e0 cc 2f 17 3c d7 53 40 ba 62 a5 01 bd db 00 00 3d
       0.009227704 -0.0007336712 -0.031651862 0.031250816
0001f0 2e 51 2c 3d 63 43 d1 bc cc 57 0e bd b0 ba f7 3c
       0.042069606 -0.025544828 -0.0347517 0.030240387
000200 7e ae e2 bb 33 c0 0e 3d c6 81 95 bc 54 6c 82 bc
       -0.0069177737 0.034851264 -0.018250357 -0.015920796
000210 0c 6b 55 3c 49 c9 df bc 88 c3 ab bc 5d 3e a2 b8
       0.01302601 -0.02731766 -0.02096726 -7.736378e-05
000220 72 f3 55 3b e8 9b 13 3d c6 19 1e bc 0a c5 dc 3a
       0.0032646325 0.036037356 -0.0096497 0.001684339
000230 ca 5d 92 bb 84 f4 9b 3b c1 61 8b bc dd fe 50 3b
       -0.004466747 0.004759373 -0.017014386 0.0031890192
000240 9c 63 02 3d 5f c6 03 3c e1 ad 04 bb 46 4d 2b bd
       0.031833276 0.008042901 -0.0020245241 -0.04182174
000250 1d 3d 21 bd ea 1c f7 bc b5 f0 4e 3c 08 24 ac bc
       -0.039364923 -0.030165154 0.012630631 -0.021013275
000260 1a 87 51 3b b1 a2 38 3c 8f aa d5 3c dc 0c 63 3c
       0.0031971396 0.011269257 0.026082305 0.013858046
000270 73 6a 4e 3c cc ef 1d 3d cb 35 ac 3c 1d 92 c5 bc
       0.012598622 0.038558766 0.021021744 -0.024117524
000280 e4 01 3d bc 96 bc e1 3c 6f c6 04 3c 82 75 14 3d
       -0.011536095 0.027555745 0.008103951 0.036244877
000290 9b 7d 93 bc d5 65 cf 3c 09 cd 78 b9 6d 9a ad 3c
       -0.01800423 0.025317112 -0.00023727505 0.0211918
0002a0 f9 99 fe bc df 0a 86 bc 3f 81 89 bc 10 00 9c bc
       -0.03107928 -0.016362606 -0.016785262 -0.019042999
0002b0 fc 76 5d 3c a6 1c 0c bd c7 09 9e bb b0 0a 1d 3c
       0.013517138 -0.03420701 -0.004822943 0.009585068
0002c0 a5 03 a1 3c c0 aa 18 3d 70 55 9b 3c 3d df 02 3c
       0.019655058 0.037272215 0.018961638 0.0079877945
0002d0 bf 47 bf 3c 88 41 0c 3c 96 38 72 bc 61 a3 05 3d
       0.02334964 0.008560546 -0.014783999 0.032626513
0002e0 05 cb fa bc ff 72 24 3d e0 f2 15 3d 0f 43 8a 3b
       -0.030614385 0.04014873 0.036608577 0.00421942
0002f0 6d 16 80 3c 66 fa fe bb 2f d9 01 bd 62 cc 80 bc
       0.015635693 -0.0077813147 -0.031701263 -0.015722457
000300 c0 ae 88 bc e7 fa 8a bb 31 7a 96 ba a2 59 1b 3d
       -0.01668489 -0.0042413357 -0.0011480508 0.037927277
000310 ad fa 2c 3d 7a 4e d3 bc fa 30 ac bc 34 5f 18 bd
       0.04223125 -0.025794256 -0.021019448 -0.037200168
000320 31 45 99 bc a1 0d 2d bd fe 79 d4 bc ce df a4 bc
       -0.01870975 -0.042249326 -0.025937077 -0.02012625
000330 f5 e4 c0 3c 65 c7 19 3d 03 6b 1e 3c 72 ae 0f bd
       0.023546675 0.037543673 0.009669068 -0.035078473
000340 5f c7 ec 3c 8f ce eb 3a 12 e3 f6 bc d5 12 dd 3c
       0.028903661 0.0017990636 -0.030137572 0.026986519
000350 83 c7 17 3c 8a b5 ce 3c 38 3e 08 3d 90 29 c7 bc
       0.009263876 0.025233049 0.03326246 -0.02431181
000360 d5 99 a6 bb f1 5e 64 3c 34 c2 0b 3b a8 d5 cd ba
       -0.005084256 0.013938651 0.002132547 -0.0015703933
000370 f2 41 9c 39 51 2a 3f 3c 1c 91 1c 3d b3 55 05 3d
       0.00029803772 0.011667804 0.038224325 0.032552432
000380 ec a1 44 bb 29 f7 aa bc 61 70 a5 bb e7 0f d1 ba
       -0.003000374 -0.020869808 -0.005048797 -0.0015950174
000390 3e c5 72 bc 23 c1 d5 3c 2f 8b 0e bb c4 83 cf bc
       -0.014817534 0.026093071 -0.002175044 -0.025331385
0003a0 0e c5 8e bc 6f bd c7 3c 7a 17 f1 bc 77 9b fb 3b
       -0.017427947 0.024382321 -0.02943014 0.007678445
0003b0 58 8a 69 3b c4 7c d3 3c ee 7e 19 3c e5 cb 0d bc
       0.0035635438 0.025816329 0.009368641 -0.008654569
0003c0 45 a3 dc bc 28 02 20 3d d8 05 c0 bc 63 2a 04 3b
       -0.026933322 0.039064556 -0.023440287 0.0020166866
0003d0 82 82 a7 3c 73 18 b7 3c c5 b9 1c bd 76 bb 7d 3c
       0.020447973 0.022350525 -0.0382631 0.015486589
0003e0 31 4e f2 3b bd bb c7 bc 4a 3c f5 3c e5 b1 aa 3c
       0.007394575 -0.024381513 0.029935975 0.02083678
0003f0 43 40 12 3d 35 50 d5 3c eb 62 d4 3c 91 fc b1 bc
       0.035705816 0.026039222 0.025926074 -0.021726878

conv4.0.bias f4 [128]
000000 0a 6b 69 3c dc 41 21 bc 23 77 2f 39 15 96 b8 bb
       0.0142467115 -0.009842362 0.00016733682 -0.0056331255
000010 31 2b d8 3c b4 1f 80 bb 5c c7 af bb f7 6d 92 3b
       0.026387783 -0.0039100293 -0.0053643417 0.0044686752
000020 e0 4e 8a bc 67 26 c4 bc bd ce ae 3c 66 2e c4 bc
       -0.016883314 -0.023944093 0.021338815 -0.023947906
000030 7f 17 6a 3b 7b b9 e1 3c 5e e7 5e bb 2e d7 ab ba
       0.0035719571 0.027554264 -0.0034012417 -0.0013110393
000040 7a 77 d2 3c b6 fe 62 bc 6e 14 e1 bc 13 50 0b 3d
       0.025691736 -0.013854673 -0.027475562 0.03401191
000050 d2 cf 27 3d 63 5d c3 3c 2c 4f 03 bd 8e 1a 86 ba
       0.040969677 0.023848241 -0.032057926 -0.0010231303
000060 28 eb 1d 3d fb cf f9 bc 4a e4 e6 3c 0f a9 8e 3a
       0.03855434 -0.03049468 0.028185029 0.0010884124
000070 5e 17 a4 3c 4f 37 2c 3d bd 3a 21 3d c0 c0 de bb
       0.020030674 0.042044934 0.039362658 -0.00679788
000080 83 68 99 3c df 61 bc bc 58 92 a0 3c c0 64 3d bc
       0.018726593 -0.022995887 0.019601032 -0.011559665
000090 4d 74 20 3c ae a7 f0 3a 42 3d e1 bb ba 62 01 bd
       0.009793353 0.0018360519 -0.0068737576 -0.031588294
0000a0 0b f7 57 bb 6e 6d 1f 3d 11 db 86 3c e8 9e aa bc
       -0.0032953646 0.03892272 0.01646188 -0.020827726
0000b0 db 1c f6 bb 72 e9 1b bc e7 a6 2c 3d 25 45 e7 3c
       -0.007510764 -0.009516107 0.042151358 0.028231213
0000c0 b2 41 d7 3c e7 74 a3 bb ff c4 81 bc 03 80 0e 3d
       0.026276443 -0.004988301 -0.015841005 0.03479005
0000d0 70 8b a4 bc 13 09 00 bd 57 f4 af 3b 21 1c 40 3d
       -0.02008602 -0.031258654 0.0053697038 0.046901826
0000e0 88 bb 9e 3c 65 a6 36 3d 29 09 43 3c 43 7b 08 bd
       0.019376531 0.04459228 0.011904039 -0.033320677
0000f0 44 10 19 bc ba 5e 1e 3d 0f f4 c3 3c 22 33 31 3d
       -0.009342257 0.038664557 0.023920087 0.043261655
000100 e0 81 0d 3d f8 a9 f0 bc 4d b8 a0 3a 9f 33 2e 3d
       0.034547687 -0.029377922 0.0012261957 0.0425297
000110 41 25 1d bd cb 9f 96 bc b4 2a 03 3d af c0 12 3d
       -0.038365606 -0.018386742 0.032023147 0.03582829
000120 1c cf 06 bd 04 d9 0a 3d 74 14 10 3c 6f 7a 86 3a
       -0.03291236 0.03389837 0.008793939 0.0010259877
000130 e0 6a 8f 3b 52 52 ae 3c a2 e8 cd 3c 83 c4 e0 3c
       0.004376754 0.021279488 0.025135342 0.027437454
000140 50 f4 ad bc aa 0f 97 bc 3f c4 0b 3d 4d da 94 3c
       -0.021234661 -0.018440086 0.0341227 0.0181705
000150 58 d8 b6 bc 9f f2 04 bd 3f 47 dc 3c e5 dc ad 3c
       -0.022319958 -0.032457944 0.026889442 0.021223495
000160 83 98 53 bc cc ff 1f bc 1e a7 a9 3c 1f bc 02 bd
       -0.01291478 -0.009765577 0.02070957 -0.031917688
000170 21 f1 f5 3a b9 75 12 bd ff a8 9e 3c 13 44 eb 3c
       0.0018763879 -0.0357568 0.019367693 0.028718984
000180 2f 8b 97 3c 24 d3 1a bd 0b bd 24 3d e6 86 3e 3d
       0.018498985 -0.037799016 0.040219348 0.046515368
000190 0b 2d 50 3c a5 c1 31 3c a5 fb 08 3d d6 ae c9 3c
       0.012706052 0.010849391 0.033443112 0.024619501
0001a0 9a ab 35 3d d2 58 4d 3c eb b8 44 bb 51 81 cc 3c
       0.044353105 0.012533383 -0.0030017446 0.024964007
0001b0 b7 9e 01 bd 14 fb 0e bd e9 96 af 3c e6 69 87 3a
       -0.031645503 -0.034907416 0.021434264 0.0010331243
0001c0 a8 f1 44 bc ab 6c fe bb 10 99 1d bd a3 bf 47 bc
       -0.012020506 -0.007764419 -0.03847605 -0.012191686
0001d0 31 5a af 3a 8e 5c e9 3c 05 15 14 bd 23 f1 d5 3c
       0.001337832 0.028486516 -0.03615286 0.02611596
0001e0 8b 2c 00 3c 07 b2 17 3d ce 15 8e 3a 50 7c 36 3d
       0.00782312 0.037035014 0.0010840239 0.044552147
0001f0 ba 70 8d bb e4 27 fc 3c ba 18 cf bc 36 f1 ce 3b
       -0.0043164166 0.03078074 -0.025280345 0.0063153757

linear.weight f4 [14, 2560]
000000 6b f9 6a 39 2d 46 13 3b 8c 9d 2d bb f7 7f 3d 3c
       0.00022408894 0.0022472248 -0.002649161 0.011566154
000010 8d 69 dc bb 59 23 91 3c d3 ab 7d 3c aa 9b 8e bc
       -0.00672645 0.01771705 0.015482861 -0.01740821
000020 48 82 4c 3c a6 77 94 3c e3 4a e2 3a 39 fc 3a 3a
       0.012482233 0.01812346 0.001726475 0.0007132921
000030 ce 81 60 bc 3e c8 14 bc 3d 26 40 3c f5 1f 24 bb
       -0.013702823 -0.009080945 0.011727867 -0.0025043462
000040 d1 27 a7 bc d8 ef ca 3b 23 2f b9 bb 14 cc 09 3b
       -0.020404728 0.0061931424 -0.005651371 0.002102618
000050 da fd 27 3c d8 f5 92 3c 01 c9 c7 ba d7 82 6b ba
       0.010253394 0.017939493 -0.0015242399 -0.0008984035
000060 de d5 9d bc 97 91 2c 3b d5 96 56 3b 2a 4a 9c bc
       -0.019267019 0.0026331895 0.0032743711 -0.019078333
000070 a1 12 93 bb e2 04 71 3c bb 79 c4 3b 06 b7 87 bc
       -0.0044883047 0.014710637 0.0059959567 -0.016566765
000080 9a e2 83 3b a4 f9 42 3c cc be 1d 3c 83 9d e7 3b
       0.0040248157 0.011900339 0.009628009 0.0070683374
000090 2d 15 8c ba 2a d4 81 3c 0f 9f ff 3b 62 ed 85 3c
       -0.0010687463 0.015848238 0.0078009437 0.016348545
0000a0 16 68 93 bb 9e 5c 23 bc 9f 5c 61 3b a8 a7 b9 3b
       -0.004498492 -0.009970812 0.0034387482 0.005665738
0000b0 aa c1 26 bb 59 b1 d0 bb 90 58 9c bb 01 c7 8e bc
       -0.0025445023 -0.0063687977 -0.0047712997 -0.017428877
0000c0 78 61 55 3c 76 37 a0 3c 8b dc 84 bc 40 ef 2a bc
       0.013023727 0.019557696 -0.016218444 -0.010433018
0000d0 a5 52 f6 3b 25 4f 2e bc 2e 3c 8b 3c 01 a6 63 3c
       0.007517176 -0.010638987 0.01699647 0.013894559
0000e0 8c e8 93 3c 28 ca 9a bc 8e 17 1f bc 30 0b 6b bc
       0.018055223 -0.018895224 -0.009710206 -0.014345929
0000f0 87 cd 7d bc 6b c7 95 3c 9c 47 8c 3b 02 8a 35 3b
       -0.015490896 0.018283566 0.0042809974 0.0027700667
000100 4c 16 b7 3b f8 74 98 bc ff 38 84 3c 73 99 e3 3b
       0.005587375 -0.018610463 0.01614046 0.006945783
000110 43 ad 74 bc 48 59 f8 bb 6b d3 a6 bc a4 0b 70 3a
       -0.014933887 -0.0075790025 -0.020364484 0.0009157008
000120 9e 83 ba 3c f0 66 00 bc f2 4f 34 3c 92 a0 26 bc
       0.022767838 -0.007837042 0.011005389 -0.010170119
000130 e7 ae 30 3c d1 84 ee bb 96 87 ec ba f7 94 6a 3c
       0.0107838875 -0.0072790165 -0.0018045779 0.014317743
000140 fc 6f bc 3b ea da 85 3c 1c 90 9c bc a8 f2 48 3c
       0.0057506543 0.016339738 -0.019111685 0.012264885
000150 8c 0f 82 bb ca 7d 73 bc df 0b ae bc 22 47 86 3b
       -0.0039691385 -0.014861533 -0.021245895 0.004097835
000160 6e 68 3a bc da 43 74 3a cc 43 80 3c 43 6e b6 3c
       -0.011377437 0.0009317972 0.015657328 0.022269374
000170 06 98 80 39 c7 b1 07 bc 4d 90 21 3c f7 0c 12 bc
       0.0002452733 -0.0082821315 0.009861064 -0.008914224
000180 a1 e3 52 bc 21 78 76 3c 98 c8 24 bb 00 52 ab bb
       -0.012871654 0.015043289 -0.0025143977 -0.005228281
000190 c7 68 9b bc df de 41 3c 21 e0 10 3c a4 3b 32 3c
       -0.01897086 0.011832922 0.008842499 0.010878477
0001a0 3d 3f 51 3c 74 0c 9a bc 4c 2e 0c bc 41 02 14 3c
       0.012771425 -0.018804766 -0.00855596 0.0090337405
0001b0 f7 f9 a2 3c bb 5c 51 bb 74 53 c1 bb 27 56 2d bc
       0.019894583 -0.003194614 -0.005899841 -0.010579622
0001c0 56 fb 24 3c 1c c2 bc ba 1f cd 95 bc 8e e3 f9 bb
       0.010069689 -0.0014401111 -0.018286286 -0.0076260036
0001d0 dd 1d 92 3c 2a 84 06 3c 92 a2 36 bc f8 e2 75 3c
       0.017836506 0.008210221 -0.011147158 0.015007727
0001e0 36 bb 74 bc 20 83 3f 3c 47 ea 51 bc f4 af fc bb
       -0.014937213 0.0116889775 -0.012812204 -0.007711405
0001f0 7e 1c bb 3b 09 d6 9f 3b 5e 69 c6 bb 8e fe 19 3b
       0.0057101836 0.00487781 -0.006055041 0.0023497674
000200 b0 9b 31 3c 8f 5b 8c 3c a0 50 7c ba 75 e0 8a 3c
       0.010840341 0.017133502 -0.0009625051 0.016952733
000210 fe 73 90 3c 99 ef 61 bc 73 c7 e9 ba 1d 86 88 bc
       0.017633434 -0.013790035 -0.001783593 -0.016665513
000220 8b a5 83 bc 4a 76 91 3c b7 c6 56 3c ed 65 8d bc
       -0.016070148 0.0177566 0.013108901 -0.017260516
000230 cd ee 4f 3c 70 b4 6f 3c 3d ec 52 bc 7d 7e 15 bc
       0.012691212 0.014630422 -0.012873706 -0.009124395
000240 f5 40 68 3c f7 d5 5a 3b 6e 7a f3 b8 0d 24 ff bb
       0.014175643 0.0033391693 -0.00011609947 -0.00778628
000250 d5 6a 78 3c ef 02 80 bc 1f ca 76 3c d2 7f 05 b9
       0.0151621895 -0.015626399 0.015062838 -0.00012731485
000260 82 c6 08 3b d6 76 47 3c fd 87 83 3c 3a 3b 65 b8
       0.0020870273 0.012174329 0.016056055 -5.4653014e-05
000270 b2 08 08 3a 1a e1 26 3b e8 c8 04 3c 90 d6 fd ba
       0.0005189284 0.002546376 0.00810454 -0.0019366313
000280 41 de 54 bc ef 4c 30 bc 31 74 97 3c 8e 6a 49 3b
       -0.012992443 -0.01076053 0.018488022 0.0030733678
000290 71 b9 6e bb 3b 61 46 bb 27 17 89 bc d2 06 9b 3b
       -0.003642645 -0.0030270356 -0.016734673 0.0047310377
0002a0 b0 41 47 3c 04 c8 95 3c 9a 6d 4a bb 43 64 6c bc
       0.012161657 0.018283851 -0.0030888082 -0.014428201
0002b0 11 36 87 3b 1e 51 f4 bb 0e 6f 93 3c f3 15 54 bb
       0.0041263183 -0.007455959 0.017997291 -0.0032361716
0002c0 5d a1 5a 3b be 2f 04 3c 39 28 cc 3b 7e b0 a7 3c
       0.003336034 0.008068023 0.006230381 0.0204699
0002d0 06 1b 8a bc cd 1d a1 bc f0 30 8a 3c a3 49 96 bc
       -0.016858589 -0.01966753 0.016869038 -0.01834566
0002e0 68 b1 80 bc 6c 55 32 bc f9 9f 93 bc 7c f8 8c 3a
       -0.015709594 -0.010884624 -0.018020617 0.0010755206
0002f0 9f f1 0a bb b1 e1 98 3a fb ff 57 bb 9e bc cd 3a
       -0.0021201146 0.0011663941 -0.0032958973 0.0015696471
000300 d2 ec 70 bc 68 42 87 3c 88 60 92 bc e7 e4 1e 3c
       -0.0147049 0.016511157 -0.017868295 0.009698129
000310 21 7e 4f bc 52 8c 0a 3a 16 49 9a ba ff 16 96 3c
       -0.012664349 0.00052851916 -0.0011771049 0.018321512
000320 23 4d 3f bb f6 25 f6 3b eb 33 0d bc 06 f7 fc 3b
       -0.0029190264 0.0075118495 -0.008618335 0.007719877
000330 75 2f 50 3c c5 65 85 bc 6b 10 55 bc eb cd 52 3c
       0.012706627 -0.016283879 -0.013004403 0.0128664775
000340 ee 80 3d bc 61 65 91 bc 9b 89 d3 bb 8c d8 7d 3c
       -0.011566384 -0.017748537 -0.006455613 0.015493523
000350 10 81 08 3b ba 4d b2 bb e7 79 88 bb 44 17 c4 ba
       0.002082888 -0.0054413946 -0.0041649225 -0.0014960547
000360 b5 d6 30 3c f1 6b 8a bc 65 bb 2c bc b0 50 a1 3b
       0.010793378 -0.016897174 -0.010542725 0.004922949
000370 aa 3f e8 3b 5b ea 95 3c 98 db 44 3b b7 61 09 3c
       0.0070876675 0.018300226 0.0030038115 0.008385113
000380 08 ad 49 bc 54 0a 9b 3c 15 d6 e8 ba d3 ae 93 3c
       -0.01230932 0.018925823 -0.0017763997 0.018027699
000390 a8 5b a6 3c 78 9f fa bb 2a 5c a1 3b 89 20 7a bc
       0.020307377 -0.0076484047 0.004924317 -0.015266546
0003a0 f0 aa 6a 3c de ef 49 bb 24 c7 b3 bc 04 4e fa bb
       0.014322981 -0.0030813138 -0.021945544 -0.0076386947
0003b0 99 97 2d bb ee 4d 86 3a 1d 8e bb 3b 59 65 60 bc
       -0.0026488064 0.0010246614 0.0057237283 -0.013696038
0003c0 f7 bb 1d 3c d3 f6 8d 3c e7 15 6c bb cb 4b 90 3c
       0.009627334 0.017329609 -0.0036023797 0.017614266
0003d0 0f 60 1e 3c c8 6b 78 bc a5 2c 79 3c e9 95 18 bc
       0.009666457 -0.015162416 0.015208398 -0.009313085
0003e0 1e ea 46 bc e8 36 41 bc 52 94 63 bc b2 3c 69 bb
       -0.012140779 -0.011792876 -0.013890343 -0.0035589156
0003f0 51 32 b6 bb b5 24 cc 39 4a 80 a5 bc 2f 90 77 3c
       -0.0055601974 0.0003893726 -0.020202775 0.01511006

linear.bias f4 [14]
000000 a7 de a5 bc 3c 5a 44 3a da 4b 36 bc d8 97 8c 3c
       -0.02024777 0.00074902526 -0.011126483 0.017162248
000010 5e f4 92 bc 28 5e 9b bb 16 c1 81 3c e4 5e d5 ba
       -0.017938789 -0.004741449 0.01583914 -0.001627889
000020 e2 6c a5 3b fa f3 30 3b ed e7 96 bc 77 b1 17 bc
       0.0050483802 0.002700089 -0.018421138 -0.0092586195
000030 d7 c6 ce 3b 1a 4e 86 3c
       0.0063103247 0.016394664
